dataset size: 6834
dataset size: 68
Adam (
Parameter Group 0
    amsgrad: False
    betas: (0.9, 0.999)
    eps: 1e-08
    lr: 0.0005
    weight_decay: 0
)
Seq2Seq(
  (init_affine): Linear(in_features=2048, out_features=1024, bias=True)
  (encoder): Encoder(
    (embedding): Embedding(13290, 512)
    (rnn): GRU(512, 1024, batch_first=True, bidirectional=True)
    (enc_emb_dp): Dropout(p=0.4, inplace=False)
    (enc_hid_dp): Dropout(p=0.4, inplace=False)
  )
  (decoder): Decoder(
    (embedding): Embedding(11873, 512)
    (dec_emb_dp): Dropout(p=0.4, inplace=False)
    (attention): Attention(
      (h2s): Linear(in_features=1024, out_features=1000, bias=True)
      (s2s): Linear(in_features=2048, out_features=1000, bias=True)
      (a2o): Linear(in_features=1000, out_features=1, bias=True)
    )
    (gru1): GRUCell(512, 1024)
    (gru2): GRUCell(2048, 1024)
    (embedding2out): Linear(in_features=512, out_features=620, bias=True)
    (hidden2out): Linear(in_features=1024, out_features=620, bias=True)
    (c2o): Linear(in_features=2048, out_features=620, bias=True)
    (readout_dp): Dropout(p=0.4, inplace=False)
    (affine): Linear(in_features=620, out_features=11873, bias=True)
  )
)
train[10] loss: 231.632, Perplexity: 39474820495189615346313528736204162045762618638327697855453131868119545369583879197072613175868784640.000
train[20] loss: 189.447, Perplexity: 18870271611949007401322190638922386362262174816799021477690372195710153920987791360.000
train[30] loss: 185.011, Perplexity: 223580889198031362202490611444433188100167624561129394013938657882573221388091392.000
…
